…
warmup_momentum=0.8, warmup_bias_lr=0.1, box=7.5, cls=0.5, dfl=1.5, pose=12.0, kobj=1.0, nbs=64, hsv_h=0.015, hsv_s=0.7, hsv_v=0.4, degrees=0.0, translate=0.1, scale=0.5, shear=0.0, perspective=0.0, flipud=0.0, fliplr=0.5, bgr=0.0, mosaic=1.0, mixup=0.0, copy_paste=0.0, copy_paste_mode=flip, auto_augment=randaugment, erasing=0.4, crop_fraction=1.0, cfg=None, tracker=botsort.yaml, save_dir=Total_segmentator/first
Overriding model.yaml nc=80 with nc=118

                   from  n    params  module                                       arguments
  0                  -1  1      2784  ultralytics.nn.modules.conv.Conv             [3, 96, 3, 2]
  1                  -1  1    166272  ultralytics.nn.modules.conv.Conv             [96, 192, 3, 2]
  2                  -1  2    389760  ultralytics.nn.modules.block.C3k2            [192, 384, 2, True, 0.25]
  3                  -1  1   1327872  ultralytics.nn.modules.conv.Conv             [384, 384, 3, 2]
  4                  -1  2   1553664  ultralytics.nn.modules.block.C3k2            [384, 768, 2, True, 0.25]
  5                  -1  1   5309952  ultralytics.nn.modules.conv.Conv             [768, 768, 3, 2]
  6                  -1  2   5022720  ultralytics.nn.modules.block.C3k2            [768, 768, 2, True]
  7                  -1  1   5309952  ultralytics.nn.modules.conv.Conv             [768, 768, 3, 2]
  8                  -1  2   5022720  ultralytics.nn.modules.block.C3k2            [768, 768, 2, True]
  9                  -1  1   1476864  ultralytics.nn.modules.block.SPPF            [768, 768, 5]
 10                  -1  2   3264768  ultralytics.nn.modules.block.C2PSA           [768, 768, 2]
 11                  -1  1         0  torch.nn.modules.upsampling.Upsample         [None, 2, 'nearest']
 12             [-1, 6]  1         0  ultralytics.nn.modules.conv.Concat           [1]
 13                  -1  2   5612544  ultralytics.nn.modules.block.C3k2            [1536, 768, 2, True]
 14                  -1  1         0  torch.nn.modules.upsampling.Upsample         [None, 2, 'nearest']
 15             [-1, 4]  1         0  ultralytics.nn.modules.conv.Concat           [1]
 16                  -1  2   1700352  ultralytics.nn.modules.block.C3k2            [1536, 384, 2, True]
 17                  -1  1   1327872  ultralytics.nn.modules.conv.Conv             [384, 384, 3, 2]
 18            [-1, 13]  1         0  ultralytics.nn.modules.conv.Concat           [1]
 19                  -1  2   5317632  ultralytics.nn.modules.block.C3k2            [1152, 768, 2, True]
 20                  -1  1   5309952  ultralytics.nn.modules.conv.Conv             [768, 768, 3, 2]
 21            [-1, 10]  1         0  ultralytics.nn.modules.conv.Concat           [1]
 22                  -1  2   5612544  ultralytics.nn.modules.block.C3k2            [1536, 768, 2, True]
 23        [16, 19, 22]  1   8458322  ultralytics.nn.modules.head.Segment          [118, 32, 384, [384, 768, 768]]
YOLO11x-seg summary: 667 layers, 62,186,546 parameters, 62,186,530 gradients, 320.4 GFLOPs

Transferred 1071/1077 items from pretrained weights
Freezing layer 'model.23.dfl.conv.weight'
[34m[1mAMP: [0mrunning Automatic Mixed Precision (AMP) checks...
[34m[1mAMP: [0mchecks passed ✅
[34m[1mtrain: [0mScanning /home/sumitpandey/Documents/MED-YOLO/CT/datasets/train/labels.cache... 278190 images, 3693 backgrounds, 0 corrupt: 100%|██████████| 2781[0m
…
